cke.pt (torch, 364766 bytes, 3 tensors)

weight f4 [450, 100]
-1.646125 -0.7486177 -0.45812914 -1.4834044 -0.31599176 -0.61677533 -0.9614038 -1.4101002
-0.46650615 -0.007802602 -0.4890982 -0.08351558 -0.07050894 1.4337265 -0.04401001 0.29745546
-0.5246126 -0.9863383 0.511115 0.25156978 0.46620503 0.36020893 -0.625376 0.53749067
1.1320503 -0.32346103 -2.043045 -1.3382096 -0.1064411 -0.65856683 -0.67811126 -0.3960152
1.6168636 -0.36976042 -0.16523868 -0.6427662 0.40107706 0.24229196 0.015251375 -0.5628602
-0.44529626 0.36343846 -0.46915588 -0.038049903 2.1399775 -0.88251024 1.436192 -0.51883566
-0.91229594 0.3102819 0.16469032 -0.18544824 0.39299703 0.45928773 0.87741417 1.7804422
0.21423918 0.8361756 0.1320545 -0.99301976 1.3492306 -0.76290804 -3.167918 -0.48965752
0.17457888 -0.8866726 -0.5608661 -1.1400546 -0.27206123 -0.23445368 1.6840626 0.23899399
-0.7272615 -0.12233716 -0.8021877 -0.6173561 -0.6692827 -0.7524204 0.38381642 -1.2944286
-0.60798466 0.3325142 -0.4821018 0.52509135 -1.5799493 -0.6474553 0.29458654 -0.40046212
0.41067258 -0.41048324 -0.8090461 0.59587276 -0.7416758 -0.5128289 0.040768895 2.1591685
0.8272218 1.212474 0.91170716 -0.73099506 1.3886234 -0.75557715 -0.77992636 1.4466525
1.2390305 0.80143875 0.07461999 0.029860662 -1.9318584 -0.6592637 -1.394188 -0.9796687
0.96354973 -0.8422154 1.2790629 0.69121706 0.39941904 0.3662027 0.4980941 -0.38634494
2.3504958 -0.12545158 0.020970602 1.7283113 -2.2742 1.5693358 0.30744597 0.5791668
0.5103843 -1.7076118 0.58863443 1.2552662 -0.6574801 -1.7403665 0.44895688 -0.6799371
-1.6063211 -1.7343168 0.62308 0.6563399 2.1645317 0.5023662 1.567145 -1.5854
-1.5749271 -0.8186049 1.3698889 0.82540923 0.4448744 -0.4605107 0.4889 -1.4068776
0.48951763 -0.06431927 0.05679092 1.0887295 1.6730299 1.8743061 -0.663911 2.3967323
0.2598676 0.014028551 -0.5671779 -0.36457878 -0.48791936 -0.7438499 1.1542623 0.8521921
0.585582 1.3177258 1.0544568 -1.6287143 -0.34780487 -0.68524826 0.10885669 0.07314949
0.89920306 1.2041461 0.53821146 1.6992534 -0.9108425 0.2506541 0.08812758 -0.549464
1.7979459 -0.41468155 0.3228314 1.3775321 0.14134616 1.1959062 -0.10197299 0.8234272
-0.32681116 0.9064478 1.638373 -0.2506392 0.49784034 -2.0361488 -2.8511164 -0.34347415
-0.47275558 0.7604954 -0.79934984 0.56898654 -1.59357 0.14352801 0.811877 0.38155317
0.98099685 0.84373623 -0.38653073 1.2653095 0.16625942 1.7049309 1.686116 1.2281266
-0.8182842 1.2684017 0.9175846 -0.38057524 0.24541825 -0.33152136 1.5252738 1.6461505
1.7381473 -0.53431594 -0.3568699 -1.458188 1.3168248 1.3162479 0.46203914 0.23543347
-0.18665707 0.44116843 0.7192492 -1.3161201 1.8677907 -2.3606222 -0.90450853 0.1126688
-0.071444616 0.87850726 1.2882168 -0.46256486 -0.81826323 -0.08897711 -0.3309076 -0.09614743
0.48410204 -0.7425345 -0.6389055 1.0749896 0.006725343 -1.5215383 -0.23132522 0.68659896
00000000: 39b4 d2bf 69a5 3fbf e78f eabe 32e0 bdbf
00000010: acc9 a1be fde4 1dbf 8f1e 76bf 2a7e b4bf
00000020: e5d9 eebe f8ac ffbb 146b fabe 370a abbd
00000030: fe66 90bd 5a84 b73f d743 34bd 154c 983e
00000040: 034d 06bf ab80 7cbf 6fd8 023f c1cd 803e
00000050: 6db2 ee3e 4e6d b83e a418 20bf fd98 093f
00000060: 06e7 903f af9c a5be 40c1 02c0 744a abbf
00000070: cbfd d9bd d697 28bf b398 2dbf 81c2 cabe
00000080: 63f5 ce3f 3d51 bdbe 5434 29be 538c 24bf
00000090: f959 cd3e 621b 783e e7e0 793c 9b17 10bf
000000a0: dffd e3be 9b14 ba3e 3335 f0be 37da 1bbd
000000b0: 64f5 0840 31ec 61bf 24d5 b73f 6ad2 04bf
000000c0: 3a8c 69bf 45dd 9e3e 94a4 283e 25e6 3dbe
000000d0: e836 c93e c327 eb3e 379e 603f 88e5 e33f
000000e0: 8461 5b3e 9b0f 563f 4b39 073e 8b36 7ebf
000000f0: 97b3 ac3f f14d 43bf 2bbf 4ac0 64b4 fabe
00000100: cec4 323e fafc 62bf ec94 0fbf 4fed 91bf
00000110: 9c4b 8bbe a014 70be 5d8f d73f d7ba 743e
00000120: cf2d 3abf e88b fabd 2c5c 4dbf 0d0b 1ebf
00000130: 1c56 2bbf a09e 40bf 9683 c43e d6af a5bf
00000140: e2a4 1bbf 4d3f aa3e 0cd6 f6be 636c 063f
00000150: c73b cabf a1bf 25bf 0cd4 963e 5f09 cdbe
00000160: ad43 d23e dc2a d2be a51d 4fbf 1e8b 183f
00000170: 77de 3dbf c148 03bf 49fd 263d d12f 0a40
00000180: cfc4 533f 5932 9b3f a465 693f 7e22 3bbf
00000190: 69be b13f 816d 41bf 41a9 47bf e92b b93f
000001a0: 8d98 9e3f 172b 4d3f 5ed2 983d 599e f43c
000001b0: 2347 f7bf 81c5 28bf c174 b2bf 91cb 7abf
000001c0: 32ab 763f 6e9b 57bf 55b8 a33f 9af3 303f
000001d0: a780 cc3e ec7e bb3e 3106 ff3e 01cf c5be
000001e0: 866e 1640 6176 00be 8aca ab3c 4e39 dd3f
000001f0: 7e8c 11c0 ffdf c83f 8f69 9d3e 4744 143f
00000200: 8ca8 023f 0693 dabf bfb0 163f 90ac a03f
00000210: 9e50 28bf 54c4 debf addd e53e 5c10 2ebf
00000220: ee9b cdbf 18fe ddbf 2c82 1f3f e405 283f
00000230: b087 0a40 129b 003f 3598 c83f 63ee cabf
00000240: 3697 c9bf 1790 51bf 8558 af3f 054e 533f
00000250: 94c6 e33e 0fc8 ebbe 1a51 fa3e 9114 b4bf
00000260: 0ea2 fa3e d2b9 83bd 999d 683d 7d5b 8b3f
00000270: d825 d63f 43e9 ef3f 12f6 29bf 1064 1940
00000280: 5e0d 853e 02d8 653c 9232 11bf 12aa babe
00000290: 91d0 f9be f26c 3ebf debe 933f 4329 5a3f
000002a0: b4e8 153f 3dab a83f 71f8 863f b679 d0bf
000002b0: 7b13 b2be 6e6c 2fbf 42f0 de3d 66cf 953d
000002c0: 2c32 663f 7621 9a3f 3ac8 093f 2381 d93f
000002d0: f92c 69bf bc55 803e 3c7c b43d aca9 0cbf
000002e0: 1723 e63f 2451 d4be 284a a53e f952 b03f
000002f0: 0cbd 103e 7413 993f 37d7 d0bd 20cc 523f
00000300: cb53 a7be f70c 683f 35b6 d13f c853 80be
00000310: eee4 fe3e 4350 02c0 b178 36c0 d8db afbe
00000320: 050d f2be d4af 423f 31a2 4cbf 1aa9 113f
00000330: 1afa cbbf 02f9 123e 2cd7 4f3f f05a c33e
00000340: 9c22 7b3f 19ff 573f 5be7 c5be a9f5 a13f
00000350: e93f 2a3e 2d3b da3f a6d2 d73f 4133 9d3f
00000360: 137b 51bf fd5a a23f d3e6 6a3f c2da c2be
00000370: ec4e 7b3e 2bbd a9be 2c3c c33f 0fb5 d23f
00000380: 9c7b de3f eec8 08bf a7b7 b6be e8a5 babf
00000390: b78d a83f d07a a83f 6590 ec3e 7915 713e
000003a0: 0823 3fbe d4e0 e13e b720 383f a076 a8bf
000003b0: c413 ef3f 6f14 17c0 df8d 67bf e6be e63d
000003c0: 8e51 92bd dae5 603f 4ae4 a43f 4dd5 ecbe
000003d0: b379 51bf a239 b6bd b96c a9be f2e8 c4bd
000003e0: 39dc f73e be16 3ebf 508f 23bf 4299 893f
000003f0: 4460 dc3b c4c1 c2bf 85e0 6cbe f3c4 2f3f

weight f4 [450, 100]
0.05049012 0.050521467 -0.07060251 -0.08065119 0.15684485 0.27516466 0.06771083 0.08097154
0.12968536 0.25616238 -0.20548439 0.001384165 -0.24976176 0.07543683 0.08050574 0.02120152
-0.06382957 -0.10316792 0.02981871 0.099273935 0.07635853 0.079637945 -0.052318618 0.16618957
-0.33606464 0.07146452 -0.16678715 0.052367814 0.11372265 0.08163128 0.10809764 0.24383612
0.0050798063 0.27793384 0.119334936 -0.07587876 -0.0409597 -0.09993808 0.07288301 0.18904884
0.12530454 -0.18995097 0.1678408 0.16545999 0.060679004 -0.024934324 -0.19161817 -0.10803931
-0.025842752 0.3359488 -0.31537262 -0.040296055 0.3031605 -0.19117032 0.08219055 0.15463415
-0.09708266 0.03892445 -0.4221641 0.176007 0.07766014 -0.047766395 0.09204564 -0.12651128
-0.19416077 0.02469939 0.3113285 0.036279127 0.20359445 -0.0531986 -0.09921715 0.026824646
0.060997438 0.2786182 -0.1764856 -0.035219856 0.23308809 0.24901387 0.02339459 0.30857643
0.07626713 -0.24633501 -0.018209666 0.21172611 0.18989764 0.06875183 -0.2899507 0.2684183
-0.14035352 -0.08511804 -0.10315683 0.078938566 -0.14646557 0.103316545 -0.02845205 -0.2116176
-0.19607829 -0.4094826 0.08392188 -0.07165794 0.23422006 -0.113027416 -0.21502858 -0.38281482
0.0484042 -0.20030671 -0.10449918 0.10343881 -0.21258233 -0.015256848 0.18662322 -0.4167268
-0.2135306 0.005778639 -0.3931556 0.053622115 0.020988163 -0.120145194 0.045101814 -0.20654696
-0.2029727 0.17584442 -0.09595504 0.08313374 0.17554513 0.18123953 -0.16698943 0.022325205
0.2280075 0.067591675 -0.1559805 -0.103762396 0.06796558 0.16082624 0.10291272 -0.13592665
0.24570967 0.0018242034 0.0061220103 -0.22723293 -0.2006828 0.20398915 0.32542366 0.081311285
0.12665074 0.095752686 -0.016957711 -0.32754344 0.24923319 0.24042432 -0.1854572 0.08224831
-0.10895691 0.099942714 0.085730605 -0.07955621 -0.26120505 -0.1468011 0.03948353 0.09153931
-0.17309971 -0.19488421 0.04189832 -0.149363 -0.22082599 -0.029457003 -0.054973282 0.27875313
-0.11976431 0.19143346 -0.13864785 0.1196348 -0.062162265 -0.031598266 -0.20356908 -0.050105795
0.035871565 -0.10785247 0.046186116 -0.24694851 0.07200976 -0.09795391 -0.16728856 0.14237683
-0.21947318 -0.0017430452 -0.06828862 0.047203742 0.074242406 -0.12418075 -0.2304967 -0.2576536
-0.11283049 -0.23043367 -0.04692242 -0.111698054 -0.002444282 0.24427485 0.06809933 -0.14243579
3.6857848e-05 0.17548414 0.0016932725 0.20302446 0.17655908 -0.34759948 -0.025794713 0.0010148594
-0.10938998 0.27673414 -0.10497089 -0.10343192 0.011573491 -0.033745427 -0.2273958 0.06865419
-0.13969526 0.052782733 0.19654946 -0.108223334 -0.24644323 0.1374164 -0.12164354 0.10767026
-0.20534772 0.0063858787 0.18453996 -0.084622785 -0.31773928 0.070872806 -0.1473012 0.14366716
-0.036515657 -0.072046205 0.080164775 -0.03631791 -0.17379661 0.018152386 0.11949173 0.12051462
0.18187039 0.07389771 0.19799748 0.1010236 0.008623045 -0.07854441 0.13658997 0.0651208
0.082013026 0.11064075 0.08597423 -0.16338594 -0.052764926 0.28164983 0.09905463 -0.39355603
00000000: bace 4e3d 99ef 4e3d 0c98 90bd 732c a5bd
00000010: f09b 203e 62e2 8c3e faab 8a3d 68d4 a53d
00000020: 3dcc 043e b727 833e 806a 52be df6c b53a
00000030: 8cc1 7fbe a07e 9a3d 32e0 a43d cfae ad3c
00000040: 14b9 82bd b449 d3bd 5e46 f43c 2250 cb3d
00000050: dc61 9c3d 3819 a33d 0c4c 56bd 992d 2a3e
00000060: aa10 acbe fe5b 923d 40ca 2abe a27f 563d
00000070: 6ce7 e83d 4d2e a73d 4c62 dd3d 2db0 793e
00000080: 8174 a63b 584d 8e3e e065 f43d 5366 9bbd
00000090: 5cc5 27bd 56ac ccbd b043 953d 0596 413e
000000a0: d54f 003e 8282 42be 75de 2b3e 586e 293e
000000b0: 8c8a 783d 1143 ccbc 8e37 44be b743 ddbd
000000c0: 2eb4 d3bc 7b01 ac3e 8578 a1be 7a0d 25bd
000000d0: da37 9b3e 27c2 43be 8553 a83d 6a58 1e3e
000000e0: 46d3 c6bd 3e6f 1f3d e525 d8be 2e3b 343e
000000f0: 480c 9f3d b2a6 43bd 6d82 bc3d 2c8c 01be
00000100: 15d2 46be 6056 ca3c 7366 9f3e 6c99 143d
00000110: 107b 503e c6e6 59bd 5c32 cbbd 5cbf db3c
00000120: 73d8 793d 0ba7 8e3e a4b8 34be b242 10bd
00000130: a5ae 6e3e 7efd 7e3e 03a6 bf3c bbfd 9d3e
00000140: f131 9c3d 3f3f 7cbe 702c 95bc bbce 583e
00000150: 8774 423e c2cd 8c3d 6b74 94be 206e 893e
00000160: d5b8 0fbe 5e52 aebd e343 d3bd 8baa a13d
00000170: 12fb 15be a097 d33d 4614 e9bc 49b2 58be
00000180: bfc8 48be b4a7 d1be 3cdf ab3d 66c1 92bd
00000190: 62d7 6f3e eb7a e7bd 7430 5cbe 4e00 c4be
000001a0: 7b43 463d 341d 4dbe ab03 d6bd bad7 d33d
000001b0: 2faf 59be dcf7 79bc 281a 3f3e 375d d5be
000001c0: c4a7 5abe bd5a bd3b b14b c9be dda2 5b3d
000001d0: 5eef ab3c af0e f6bd aebc 383d 0c81 53be
000001e0: 13d8 4fbe 8f10 343e 1384 c4bd 0642 aa3d
000001f0: 1ac2 333e db96 393e 47ff 2abe 59e3 b63c
00000200: cc7a 693e 816d 8a3d 5ab9 1fbe 6181 d4bd
00000210: 8a31 8b3d a2af 243e e7c3 d23d 5b30 0bbe
00000220: 519b 7b3e 1c1a ef3a 259b c83b c0af 68be
00000230: cb7f 4dbe 88e2 503e ee9d a63e 8886 a63d
00000240: bbb0 013e fc19 c43d e6ea 8abc c6b3 a7be
00000250: fc36 7f3e cb31 763e 7ee8 3dbe cd71 a83d
00000260: cd24 dfbd c4ae cc3d 8793 af3d 5eee a2bd
00000270: abbc 85be 0753 16be 7bb9 213d f678 bb3d
00000280: 0d41 31be ba8f 47be 939d 2b3d 9df2 18be
00000290: 3520 62be d04f f1bc aa2b 61bd bbb8 8e3e
000002a0: fe46 f5bd 2207 443e b4f9 0dbe 1703 f53d
000002b0: dc9d 7ebd 2f6d 01bd 6a74 50be bc3b 4dbd
000002c0: 10ee 123d c1e1 dcbd a72d 3d3d 12e0 7cbe
000002d0: da79 933d 0f9c c8bd b14d 2bbe 3bcb 113e
000002e0: 94bd 60be e476 e4ba e7da 8bbd b658 413d
000002f0: 670c 983d 7a52 febd 5407 6cbe 2ceb 83be
00000300: ac13 e7bd cef6 6bbe b931 40bd f3c1 e4bd
00000310: 3f30 20bb 3023 7a3e a977 8b3d b0da 11be
00000320: d097 1a38 1db2 333e ccf0 dd3a a5e5 4f3e
00000330: e7cb 343e 8ff8 b1be 6f4f d3bc 0805 853a
00000340: db07 e0bd 19b0 8d3e fafa d6bd 1dd4 d3bd
00000350: bd9e 3d3c a538 0abd 72da 68be 919a 8c3d
00000360: 460c 0fbe b532 583d 4344 493e 32a4 ddbd
00000370: 9d5b 7cbe e2b6 0c3e 4020 f9bd 3a82 dc3d
00000380: ac46 52be a240 d13b 0bf8 3c3e b64e adbd
00000390: b9ae a2be c325 913d 20d6 16be 7c1d 133e
000003a0: 7191 15bd f68c 93bd 6e2d a43d 17c2 14bd
000003b0: bdf7 31be 50b4 943c 15b8 f43d 5ed0 f63d
000003c0: 3b3c 3a3e af57 973d dabf 4a3e 76e5 ce3d
000003d0: ac47 0d3c e4db a0bd 3ede 0b3e 0e5e 853d
000003e0: 72f6 a73d 9e97 e23d 4213 b03d a54e 27be
000003f0: 0920 58bd 6834 903e 27dd ca3d 2d80 c9be

bias f4 [450]
0.4090306 0.45251423 0.30173883 0.26364756 0.22455284 0.15974571 0.08172276 0.07735214
0.13374718 0.017189464 0.10808876 0.11739645 -0.0016478867 0.15261091 0.1899563 0.03273097
0.024082866 0.012845295 0.11086576 0.014860796 0.08122111 -0.019910965 0.039863214 -0.10038944
0.0661893 -0.048634626 -0.10788591 -0.00870895 -0.16306457 -0.0241098 0.09464968 -0.10970842
-0.05670113 0.013803305 0.12446948 0.004038457 0.014544097 -0.044555508 -0.097375095 -0.02149823
-0.007301742 -0.012094458 0.005063203 -0.017064141 -0.022789957 -0.082755364 0.0080665825 0.012310848
-0.012554233 0.03291728 -0.10579854 -0.0044160765 -0.08167571 -0.056831755 -0.122768156 -0.13355437
-0.056442518 -0.10747116 0.03216718 -0.1778507 -0.12099593 -0.05190195 -0.13608812 0.047621563
-0.019347982 0.079473354 -0.11617122 -0.06333918 -0.025878327 0.042328198 0.025706021 -0.0975895
-0.10475528 -0.16319166 -0.13262466 0.0025222506 -0.16969521 -0.06451975 -0.16207272 -0.021902101
-0.14432113 -0.06322876 -0.026619034 -0.046909973 -0.056065127 -0.07153904 -0.04721128 -0.14075299
-0.02065825 -0.04700859 -0.11625345 -0.011203971 -0.051719844 -0.07875849 -0.07634953 -0.019263316
-0.07914192 -0.07014978 -0.11429119 -0.053899378 -0.06244383 -0.054481428 -0.18277048 0.028319487
-0.087967224 -0.10319113 -0.12582137 -0.039478723 -0.0800867 -0.086446114 -0.068874195 -0.10580319
-0.106181376 -0.05601595 -0.070150524 -0.009152148 -0.08970598 -0.10955242 -0.098377675 -0.08509899
-0.030848755 -0.13940296 -0.14701888 -0.01718628 -0.055523857 -0.09100139 -0.10380489 -0.09980789
-0.103106014 -0.11364228 -0.08716957 -0.1345036 0.029206727 -0.09098107 -0.10537574 -0.10145307
-0.052941024 -0.09632976 -0.14984375 -0.075986065 -0.10116797 -0.16052265 -0.014970578 -0.1550084
-0.15110964 -0.046790283 -0.037999913 -0.09911383 -0.024224332 -0.030497454 0.034975573 -0.05191304
-0.15813445 -0.06836957 -0.09814068 -0.09976619 -0.010208076 -0.15769672 -0.0465139 -0.19075967
-0.16322483 -0.111369714 -0.0463001 -0.16308866 -0.09215025 -0.09459863 -0.17537847 -0.028362513
-0.018412497 -0.03257252 -0.14643003 -0.09900687 -0.05413331 -0.15325435 -0.0034667125 -0.07392366
-0.10560609 -0.08450487 -0.004149972 -0.09835865 -0.025259761 0.012097453 -0.086702205 0.022629727
-0.074595846 -0.15923871 -0.05173335 -0.16329531 -0.1258624 0.02515221 0.011762887 0.022529643
-0.064271554 -0.04735378 -0.035933655 0.018373678 -0.0055947336 -0.06354649 -0.026510095 -0.022117099
-0.086315826 -0.08625887 -0.08749121 0.030275773 0.016424406 -0.09192604 -0.12637873 -0.13532592
0.036691982 -0.08911956 -0.09759738 -0.12888493 -0.07172917 -0.17967476 -0.039095726 -0.15217797
-0.14449093 -0.13356909 0.009933932 -0.10384973 0.012227161 -0.05100079 -0.13551646 -0.14407213
-0.01906771 -0.05065012 -0.042142916 -0.03377937 -0.11068715 -0.16351245 -0.042519074 -0.10799311
-0.055653803 -0.04822323 -0.050019104 -0.022605084 -0.14810687 -0.043403856 -0.028622339 -0.1412925
-0.12437501 -0.083435655 -0.16292678 -0.13515317 -0.17843436 -0.05364311 -0.10965126 -0.07794219
-0.011015919 -0.15663117 -0.031281427 -0.12188861 -0.10594709 -0.16759124 -0.10309778 0.0070834234
00000000: 756c d13e f2af e73e 837d 9a3e d0fc 863e
00000010: 2ef1 653e 6194 233e 435e a73d cc6a 9e3d
00000020: 05f5 083e ebd0 8c3c a45d dd3d 8d6d f03d
00000030: e7fd d7ba 0946 1c3e e883 423e e910 063d
00000040: 6e49 c53c 1275 523c 960d e33d b27a 733c
00000050: 4157 a63d 521c a3bc 9c47 233d fb98 cdbd
00000060: 418e 873d 1a35 47bd 4af3 dcbd fcaf 0ebc
00000070: 66fa 26be ea81 c5bc b1d7 c13d cfae e0bd
00000080: 723f 68bd 4227 623c dbe9 fe3d 0855 843b
00000090: 5d4a 6e3c d67f 36bd 986c c7bd 0e1d b0bc
000000a0: 7443 efbb d527 46bc 3ae9 a53b 19ca 8bbc
000000b0: 01b2 babc a57b a9bd b329 043c 70b3 493c
000000c0: 45b0 4dbc 45d4 063d e8ac d8bd bcb4 90bb
000000d0: 9845 a7bd 6ac8 68bd df6d fbbd 7ac2 08be
000000e0: 4530 67bd d719 dcbd bcc1 033d 7e1e 36be
000000f0: b7cc f7bd 2497 54bd af5a 0bbe d40e 433d
00000100: a97f 9ebc edc2 a23d 2deb edbd f9b7 81bd
00000110: c9fe d3bc 5560 2d3d 6f95 d23c 01dd c7bd
00000120: f089 d6bd b71b 27be c2ce 07be 584c 253b
00000130: 95c4 2dbe ee22 84bd 64f6 25be 096c b3bc
00000140: ebc8 13be 157e 81bd 2910 dabc ac24 40bd
00000150: 8ca4 65bd 0f83 92bd 9d60 41bd 8d21 10be
00000160: 7e3b a9bc 148c 40bd 4a16 eebd dc90 37bc
00000170: 30d8 53bd 224c a1bd 245d 9cbd 1ace 9dbc
00000180: 2915 a2bd b0aa 8fbd 8011 eabd 98c5 5cbd
00000190: 1ac5 7fbd eb27 5fbd 2f28 3bbe 45fe e73c
000001a0: 2928 b4bd df55 d3bd 51d7 00be 71b4 21bd
000001b0: 7f04 a4bd a90a b1bd ea0d 8dbd 58af d8bd
000001c0: 9f75 d9bd fb70 65bd 14ab 8fbd e4f2 15bc
000001d0: c5b7 b7bd 055d e0bd 3c7a c9bd 6148 aebd
000001e0: 87b6 fcbc a6bf 0ebe 1e8c 16be 3eca 8cbc
000001f0: fc6c 63bd f05e babd a897 d4bd 1468 ccbd
00000200: 3f29 d3bd 49bd e8bd f685 b2bd 50bb 09be
00000210: f242 ef3c 4954 babd 3ccf d7bd a1c6 cfbd
00000220: b0d8 58bd 8a48 c5bd a470 19be 959e 9bbd
00000230: 2731 cfbd 0d60 24be 2847 75bc 86ba 1ebe
00000240: 7cbc 1abe 2ba7 3fbd cca5 1bbd 31fc cabd
00000250: 1b72 c6bc ccd5 f9bc 8c42 0f3d c5a2 54bd
00000260: ffed 21be 5805 8cbd fbfd c8bd 3752 ccbd
00000270: c63f 27bc 407b 21be 5c85 3ebd 8156 43be
00000280: 6924 27be ce15 e4bd 2ca5 3dbd b700 27be
00000290: 45b9 bcbd edbc c1bd 6a96 33be 8058 e8bc
000002a0: ced5 96bc c36a 05bd c1f1 15be 1dc4 cabd
000002b0: e4ba 5dbd b5ee 1cbe c931 63bb 4a65 97bd
000002c0: 0148 d8bd e410 adbd 7dfc 87bb 4370 c9bd
000002d0: 8fed cebc 6534 463c ed90 b1bd fa61 b93c
000002e0: b5c5 98bd 790f 23be 59e6 53bd e336 27be
000002f0: 13e2 00be 020c ce3c 20b9 403c 1690 b83c
00000300: cea0 83bd 0af6 41bd 2b2f 13bd 6584 963c
00000310: 0754 b7bb aa24 82bd b32b d9bc eb2e b5bc
00000320: 5ac6 b0bd 7ea8 b0bd 972e b3bd e604 f83c
00000330: 7a8c 863c b843 bcbd 6d69 01be e192 0abe
00000340: 554a 163d 5184 b6bd 23e1 c7bd 69fa 03be
00000350: bee6 92bd a9fc 37be d722 20bd 8bd4 1bbe
00000360: 6ef5 13be 56c6 08be eec1 223c 2baf d4bd
00000370: 6e54 483c 34e6 50bd d4c4 0abe a587 13be
00000380: e333 9cbc 8076 4fbd 0d9e 2cbd 3d5c 0abd
00000390: f2af e2bd cf6f 27be 7b28 2ebd 7e2b ddbd
000003a0: 3ef5 63bd b985 45bd d5e0 4cbd 4c2e b9bc
000003b0: 54a9 17be 3ec8 31bd 6579 eabc fbae 10be
000003c0: 53b8 febd 50e0 aabd 47d6 26be 9865 0abe
000003d0: 7fb7 36be e1b8 5bbd d790 e0bd 28a0 9fbd
000003e0: 1d7c 34bc ec63 20be f420 00bd bca0 f9bd
000003f0: cafa d8bd 0a9d 2bbe ee24 d3bd 101c e83b
